saved_models/nepal.pt (torch_old, 4820 bytes, 2 tensors)

weight f4 [3, 308]
0.032105416 -0.053152915 -0.016554195 -0.01153069 0.0038127564 0.0016704388 0.0018888526 0.040187776
0.045708105 0.014855619 0.03631407 0.008435592 -0.023043115 -0.056565527 -0.004531217 -0.024524791
0.047688484 0.021885129 -0.05109348 -0.04461247 -0.041391782 -0.026224839 -0.028910557 -0.01062429
-0.022596814 0.0077627674 -0.0032851696 0.008216277 -0.042173445 -0.0068200007 -0.0017706417 0.055435464
-0.034105927 -0.03384706 0.0445693 -0.003063418 0.0050076954 0.02634482 -0.018144052 0.05481702
-0.050393 -0.05180429 0.012074545 -0.047133528 0.054917905 0.036725253 -0.029586589 -0.046654835
-0.03549049 0.025124589 0.018798225 0.0128517 -0.0026255895 -0.023151712 0.02239731 0.00881965
-0.03462689 -0.026412003 -0.038740866 -0.032022756 -0.0095067145 -0.047883414 0.039492197 -0.024591435
-0.011675697 0.03492944 0.016641818 -0.007076137 0.04410235 0.03099347 -0.050939336 0.012224339
-0.039120838 -0.0048916796 0.012544431 -0.0043012127 -0.053786434 0.00346811 0.025247784 -0.0058434196
0.031603396 -0.002871902 -0.01534009 -0.008458008 0.010946058 -0.043693613 -0.02475874 0.04354217
-0.049769394 -0.04426412 -0.02252664 -0.015145075 -0.035262857 -0.0245687 0.046333518 -0.0077381693
-0.024908569 0.023802722 0.037105627 -0.044932496 -0.02740028 0.005008436 0.029682519 0.037059415
0.02248204 0.04735308 0.008595425 -0.0038922664 0.03932083 -0.035603404 0.044953108 -0.054275926
0.006280564 -0.032274935 0.05139108 -0.01833557 0.042127818 0.012805316 0.03814716 0.044457473
-0.04617772 -0.013902374 0.00083006435 0.012451041 -0.03762707 -0.056513935 -0.027674302 -0.022837028
-0.024362842 0.015044332 -0.04873007 -0.047164932 -0.036561165 0.03339149 -0.0015627529 -0.00638118
-0.036710843 -0.012147665 0.021255076 0.002703309 -0.024195503 0.03465108 0.0044606514 -0.050688963
0.03889483 -0.036532275 -0.009232454 -0.024615869 -0.041787516 -0.034269165 0.02802755 0.0019420125
-0.04867819 0.029279957 0.05305599 0.010679215 0.0002002716 -0.007023778 -0.010020961 -0.021527547
0.030242473 -0.04885567 -0.05090058 0.0086674765 0.03225057 -0.017767671 0.0362339 0.004730284
0.0067140087 -0.0488894 -0.016978657 -0.054824986 0.010525852 0.014478236 -0.0036168706 0.02437862
0.045847557 0.04255616 -0.01381565 0.045178037 -0.045934275 0.019716473 0.043885197 0.021108145
0.01846543 -0.04125133 -0.05088706 0.05531147 -0.024551176 -0.009024996 -0.05286367 0.052496012
-0.0561594 0.00485777 0.008330072 0.049645983 0.044110265 0.014322631 -0.0563788 -0.017001826
-0.044626687 0.055952016 0.030070908 0.01020206 0.04954089 -0.013628483 -0.051131357 0.028274864
0.023052508 0.0016803481 -0.028725255 0.05508931 0.008056487 -0.0049350485 0.029509224 0.02082552
-0.03668534 -0.031898938 0.026346147 0.055140242 -0.021968152 -0.015165914 0.04577035 0.0369441
-0.047518402 -0.0018417101 0.022366473 -0.0062048435 0.041907243 0.017799804 0.025711037 -0.053376935
0.01829873 0.009235631 0.030249836 0.014940105 -0.03891635 0.0024466168 -0.0014013834 0.025415584
0.0034209143 0.015336732 -0.055646837 -0.05470649 0.054299887 -0.0069599077 -0.03253541 0.046902604
-0.0006659031 -0.038311705 0.018107139 0.013716835 -0.020045642 0.05224407 -0.052322112 0.010961327
00000000: f880 033d dfb6 59bd aa9c 87bc 38eb 3cbc
00000010: 70df 793b a0f2 da3a 6093 f73a f09b 243d
00000020: 6c38 3b3d fb64 733c 10be 143d 7035 0a3c
00000030: eac4 bcbc 41b1 67bd 9a7a 94bb 37e8 c8bc
00000040: 0055 433d 7148 b33c 6647 51bd 91bb 36bd
00000050: 6e8a 29bd 79d5 d6bc d5d5 ecbc 8111 2ebc
00000060: f41c b9bc d05e fe3b 004c 57bb 909d 063c
00000070: 10be 2cbd 507a dfbb e014 e8ba 4c10 633d
00000080: a8b2 0bbd 37a3 0abd 4c8e 363d a0c3 48bb
00000090: 9817 a43b 18d1 d73c d6a2 94bc d087 603d
000000a0: e468 4ebd bc30 54bd 50d4 453c 160f 41bd
000000b0: 99f1 603d 386d 163d 935f f2bc 2419 3fbd
000000c0: 7a5e 11bd 15d2 cd3c bcfe 993c f08f 523c
000000d0: 1512 2cbb a9a8 bdbc 907a b73c 4b80 103c
000000e0: edd4 0dbd fc5d d8bc beae 1ebd 4b2a 03bd
000000f0: 0dc2 1bbc 6621 44bd 92c2 213d fa73 c9bc
00000100: 6c4b 3fbc 2c12 0f3d 6c54 883c f0de e7bb
00000110: aaa4 343d 05e6 fd3c c4a5 50bd 9848 483c
00000120: 2c3d 20bd 624a a0bb 2887 4d3c 30f1 8cbb
00000130: 2a4f 5cbd 3b49 633b 71d4 ce3c 287a bfbb
00000140: 9072 013d 8536 3cbb 0055 7bbc 7593 0abc
00000150: 1857 333c 13f8 32bd d7d2 cabc 4659 323d
00000160: feda 4bbd 4b4e 35bd ca89 b8bc 0c23 78bc
00000170: c96f 10bd 4c44 c9bc 37c8 3d3d 7890 fdbb
00000180: 0e0d ccbc edfd c23c 12fc 173d 230b 38bd
00000190: 8d76 e0bc ce1d a43b c128 f33c 9dcb 173d
000001a0: 412c b83c 4ef5 413d d3d3 0c3c 6515 7fbb
000001b0: e10e 213d e0d4 11bd c020 383d 6f50 5ebd
000001c0: 30cd cd3b b932 04bd 747f 523d 7a34 96bc
000001d0: 388e 2c3d 63cd 513c 3240 1c3d 0a19 363d
000001e0: d924 3dbd c8c6 63bc ad98 593a 73ff 4b3c
000001f0: d81e 1abd 287b 67bd 38b5 e2bc b814 bbbc
00000200: 9594 c7bc 807c 763c 2f99 47bd 0430 41bd
00000210: 29c1 15bd 84c5 083d 49d5 ccba 3819 d1bb
00000220: 1c5e 16bd 0007 47bc 201f ae3c 002a 313b
00000230: a635 c6bc 4aee 0d3d a82a 923b 3b9f 4fbd
00000240: 2f50 1f3d dea2 15bd b843 17bc 38a7 c9bc
00000250: 6329 2bbd d35d 0cbd 089a e53c 208b fe3a
00000260: c862 47bd 85dc ef3c 3d51 593d e0f7 2e3c
00000270: 0000 5239 b827 e6bb f52e 24bc 8a5a b0bc
00000280: 10bf f73c e21c 48bd 207d 50bd 0802 0e3c
00000290: 2c19 043d 828d 91bc ff69 143d 8000 9b3b
000002a0: 3001 dc3b 4040 48bd d316 8bbc 2a90 60bd
000002b0: a074 2c3c 2036 6d3c 0509 6dbb acb5 c73c
000002c0: a6ca 3b3d 5e4f 2e3d 095b 62bc 9b0c 393d
000002d0: 9425 3cbd 7184 a13c f7c0 333d fdea ac3c
000002e0: d044 973c 28f7 28bd f36e 50bd 488e 623d
000002f0: 8c1f c9bc 94dd 13bc 9387 58bd 0f06 573d
00000300: 6607 66bd ee2d 9f3b db7a 083c 9659 4b3d
00000310: f7ac 343d 78a9 6a3c 75ed 66bd 6a47 8bbc
00000320: 79ca 36bd f12d 653d 4457 f63c 8b26 273c
00000330: 63eb 4a3d 004a 5fbc 1d6f 51bd b0a0 e73c
00000340: 9dd8 bc3c 203f dc3a 3a51 ebbc 54a5 613d
00000350: 5bff 033c 30b6 a1bb 54bd f13c 489a aa3c
00000360: 5e43 16bd 76a8 02bd e0d3 d73c bcda 613d
00000370: 8ef6 b3bc 747a 78bc b179 3b3d b252 173d
00000380: a8a2 42bd 8965 f1ba e539 b73c 0052 cbbb
00000390: eea6 2b3d e5d0 913c f49f d23c c6a1 5abd
000003a0: 38e7 953c 0b51 173c 81ce f73c 58c7 743c
000003b0: c066 1fbd 6b57 203b a0ae b7ba 5834 d03c
000003c0: 6b31 603b eb46 7b3c f0ed 63bd ea13 60bd
000003d0: 8f69 5e3d f00f e4bb da43 05bd f21c 403d
000003e0: 0090 2eba bcec 1cbd 6c55 943c 93bc 603c
000003f0: c236 a4bc e1fd 553d b64f 56bd 2397 333c

bias f4 [3]
-0.015526974 0.02356614 0.046051037
00000000: d964 7ebc c70d c13c 03a0 3c3d
