saved_models/nepal_bert_service.pth (torch_old, 10347 bytes, 2 tensors)

weight f4 [3, 768]
-0.21969064 0.17268391 -0.033281695 0.0062807337 -0.018015953 -0.22148661 0.16421393 0.13175127
0.021839691 0.0021973937 0.32442647 0.1743158 0.26164886 0.022907712 0.22709186 -0.1134855
0.21563911 -0.25850675 0.04572048 -0.10658245 -0.07899126 -0.14044546 -0.43762052 -0.14248872
0.22449169 0.43267524 -0.097558565 -0.6167692 -0.10584816 -0.17783657 0.051693633 0.17012316
-0.25332335 -0.02623556 -0.047841165 0.06727304 -0.007333821 -0.50124604 -0.24675989 0.059610453
-0.27332655 0.019975351 -0.3751257 -0.14688449 -0.39855346 -0.34738436 0.25185168 0.14772408
-0.016034286 -0.04159188 0.044514034 0.30023363 -0.0496218 0.09093041 0.21477774 -0.008877249
-0.033818707 -0.31607443 0.1217729 -0.30165055 0.08237919 -0.01450447 -0.08924924 -0.041528177
0.07698678 0.15920949 0.15954532 0.040911302 -0.13104002 0.013668502 -0.33245322 -0.06192395
0.0025379674 -0.03539011 -0.14989926 -0.014096893 -0.024101643 0.08300697 -0.009817765 -0.25920615
0.8069817 0.22033136 0.18249764 -0.15132946 0.0025411376 -0.10614992 0.014288381 -0.046304166
-0.13209859 0.03982295 0.1617497 0.13908923 -0.24448663 0.4205413 0.09556646 0.12556048
0.21450795 0.271071 -0.3003268 0.20856507 -0.14086227 0.14449564 -0.15682922 -0.12090317
0.042328995 0.025287902 0.019914677 0.18876737 -0.4092147 -0.13013665 -0.11613086 0.016958961
-0.021938272 0.06391754 -0.02186421 -0.14831251 -0.41361046 -0.26414078 -0.1061151 -0.15793748
-0.10654428 -0.033329405 -0.019318476 -0.16674665 0.052339364 -0.09495474 0.20093578 -0.029337596
0.26358396 -0.06670917 -0.08384864 0.0074720667 0.15764005 0.012947812 -0.19298644 -0.23278378
0.18606858 -0.07327323 -0.10578012 -0.11831429 0.0013582427 -0.103498876 -0.34092647 0.071879864
0.35766578 -0.14521506 0.058711413 0.019671353 0.0095436275 0.003574388 0.092937775 0.029187385
-0.04605589 -0.028312674 -0.2446721 0.017060744 0.13410991 -0.030962247 -0.23326983 0.4703522
0.15823345 -0.11103356 0.0048480835 0.05621815 0.5080649 -0.026725676 -0.0613113 0.08513657
-0.19334199 -0.042851385 -0.093319 0.051497623 -0.13831782 0.2445302 -0.014243494 -0.1775843
-0.13769542 0.004715699 0.039747935 0.063636445 -0.13399577 -0.17335448 -0.08688627 0.035532348
0.03857274 0.17191845 -0.049257275 -0.28846532 0.071196005 0.100642785 -0.021345003 0.19199252
-0.035001792 -0.35203505 -0.11974457 -0.0034064057 0.113327056 0.012674053 0.03351288 0.13105705
-0.20708194 -0.10270129 0.08401249 -0.056555815 0.065213405 0.035654157 0.011644051 0.28184775
0.0801394 0.11385926 0.043128777 -0.11080094 -0.038751196 0.068387784 0.055432353 -0.020438729
-0.06087568 -0.10011728 0.013984442 0.13331331 -0.1883476 -0.064063966 -0.008205157 0.13229954
0.1144065 -0.030432634 -0.20064889 -0.10147836 -0.031020852 0.023652434 0.073654264 -0.15682149
-0.024453113 0.11239742 -0.0629596 0.17020096 0.013100328 -0.15081373 -0.062479373 0.044589948
0.0837687 0.16340807 -0.032709237 0.39422706 -0.14348245 -0.040931627 0.18255694 -0.12541299
-0.05252926 0.35538912 -0.22888511 0.15351202 -0.24191654 -0.081963435 0.11971297 0.1761174
00000000: 95f6 60be 0dd4 303e 6352 08bd 9dce cd3b
00000010: 3196 93bc 63cd 62be b227 283e cee9 063e
00000020: 27e9 b23c 2602 103b 3a1b a63e d77f 323e
00000030: d7f6 853e f4a8 bb3c c58a 683e 166b e8bd
00000040: 80d0 5c3e ff5a 84be 6645 3b3d e647 dabd
00000050: 2bc6 a1bd efd0 0fbe cc0f e0be 90e8 11be
00000060: 26e1 653e 9c87 dd3e c9cc c7bd 96e4 1dbf
00000070: ecc6 d8bd ca1a 36be b4bc 533d c434 2e3e
00000080: 99b3 81be f5eb d6bc 19f5 43bd 73c6 893d
00000090: 8d50 f0bb a951 00bf a0ae 7cbe 172a 743d
000000a0: 75f1 8bbe 59a3 a33c 7a10 c0be e368 16be
000000b0: 330f ccbe 5ddc b1be b4f2 803e fb44 173e
000000c0: 565a 83bc 3f5c 2abd 5954 363d 39b8 993e
000000d0: 3b40 4bbd b939 ba3d b2ee 5b3e e271 11bc
000000e0: 7c85 0abd 82d4 a1be 1264 f93d f171 9abe
000000f0: 6cb6 a83d 28a4 6dbc 4ec8 b6bd 7319 2abd
00000100: 3fab 9d3d d007 233e d95f 233e 9c92 273d
00000110: 5b2f 06be daf1 5f3c 4f37 aabe f8a3 7dbd
00000120: 0754 263b 38f5 10bd 317f 19be a8f6 66bc
00000130: cf70 c5bc 8fff a93d b1da 20bc abb6 84be
00000140: 5a96 4e3f 8b9e 613e a9e0 3a3e 1cf6 1abe
00000150: 3789 263b 2165 d9bd d019 6a3c 70a9 3dbd
00000160: da44 07be 641d 233d b7a1 253e 686d 0e3e
00000170: b45a 7abe 3051 d73e 59b8 c33d ed92 003e
00000180: f9a7 5b3e d1c9 8a3e 6fc4 99be 1592 553e
00000190: 333e 10be aaf6 133e d797 20be 159c f7bd
000001a0: 2b61 2d3d 9328 cf3c 1b24 a33c 3c4c 413e
000001b0: 9784 d1be 8b42 05be 04d6 edbd 85ed 8a3c
000001c0: e4b7 b3bc 33e7 823d 921c b3bc 3cdf 17be
000001d0: c0c4 d3be 763d 87be e052 d9bd 5dba 21be
000001e0: e333 dabd 6a84 08bd c841 9ebc a2bf 2abe
000001f0: cd61 563d a177 c2bd 1cc2 4d3e 6655 f0bc
00000200: 7af4 863e d19e 88bd d6b8 abbd 3dd8 f43b
00000210: 656c 213e 0f23 543c 3d9e 45be df5e 6ebe
00000220: c388 3e3e 4610 96bd 3fa3 d8bd c34e f2bd
00000230: 1007 b23a 38f7 d3bd ea8d aebe c035 933d
00000240: f81f b73e 42b3 14be 617b 703d d125 a13c
00000250: e05c 1c3c 4840 6a3b 2956 be3d 621a ef3c
00000260: 1aa5 3cbd fbef e7bc 538b 7abe f9c2 8b3c
00000270: 1c54 093e 8aa4 fdbc 49de 6ebe 01d2 f03e
00000280: f307 223e 9065 e3bd acdc 9e3b 0145 663d
00000290: 8b10 023f ceef dabc 8f21 7bbd 155c ae3d
000002a0: 71fb 45be ef84 2fbd 081e bfbd 2cef 523d
000002b0: 30a3 0dbe 2066 7a3e 8b5d 69bc a9d8 35be
000002c0: 0700 0dbe 2686 9a3b bbce 223d d353 823d
000002d0: 3036 09be d683 31be 6ef1 b1bd 5e8a 113d
000002e0: 73fe 1d3d 640b 303e ffc1 49bd bab1 93be
000002f0: 36cf 913d ce1d ce3d b7db aebc b099 443e
00000300: 0a5e 0fbd f03d b4be a43c f5bd 013e 5fbb
00000310: 0418 e83d d5a6 4f3c cd44 093d d233 063e
00000320: 4a0d 54be 0e55 d2bd be0e ac3d 12a7 67bd
00000330: 9b8e 853d 180a 123d b1c6 3e3c 594e 903e
00000340: 2020 a43d 0b2f e93d cda7 303d 9aeb e2bd
00000350: 93b9 1ebd e50e 8c3d 090d 633d 1f6f a7bc
00000360: c758 79bd 4a0a cdbd 001f 653c 4983 083e
00000370: 31de 40be f833 83bd ec6e 06bc 8879 073e
00000380: f44d ea3d dc4d f9bc e776 4dbe e3d3 cfbd
00000390: 711f febc c0c2 c13c 0cd8 963d d095 20be
000003a0: e551 c8bc 9e30 e63d f6f0 80bd 2949 2e3e
000003b0: c2a2 563c ea6e 1abe 5fea 7fbd f3a3 363d
000003c0: ed8e ab3d 7254 273e 1ffa 05bd 21d8 c93e
000003d0: 10ed 12be eca7 27bd 35f0 3a3e 436c 00be
000003e0: ec28 57bd 90f5 b53e dc60 6abe 4132 1d3e
000003f0: f8b8 77be 72dc a7bd 132c f53d 1f58 343e

bias f4 [3]
0.073930874 -0.01866564 -0.076351814
00000000: 1269 973d afe8 98bc 575e 9cbd
